…
            "\u001b[34m\u001b[1mtest:\u001b[0m /content/datasets/downout/test... found 296 images in 2 classes ✅ \n"
          ]
        },
        {
          "output_type": "stream",
          "name": "stderr",
          "text": [
            "\n"
          ]
        },
        {
          "output_type": "stream",
          "name": "stdout",
          "text": [
            "Overriding model.yaml nc=1000 with nc=2\n",
            "\n",
            "                   from  n    params  module                                       arguments                     \n",
            "  0                  -1  1      2320  ultralytics.nn.modules.conv.Conv             [3, 80, 3, 2]                 \n",
            "  1                  -1  1    115520  ultralytics.nn.modules.conv.Conv             [80, 160, 3, 2]               \n",
            "  2                  -1  3    436800  ultralytics.nn.modules.block.C2f             [160, 160, 3, True]           \n",
            "  3                  -1  1    461440  ultralytics.nn.modules.conv.Conv             [160, 320, 3, 2]              \n",
            "  4                  -1  6   3281920  ultralytics.nn.modules.block.C2f             [320, 320, 6, True]           \n",
            "  5                  -1  1   1844480  ultralytics.nn.modules.conv.Conv             [320, 640, 3, 2]              \n",
            "  6                  -1  6  13117440  ultralytics.nn.modules.block.C2f             [640, 640, 6, True]           \n",
            "  7                  -1  1   7375360  ultralytics.nn.modules.conv.Conv             [640, 1280, 3, 2]             \n",
            "  8                  -1  3  27865600  ultralytics.nn.modules.block.C2f             [1280, 1280, 3, True]         \n",
            "  9                  -1  1   1643522  ultralytics.nn.modules.head.Classify         [1280, 2]                     \n",
            "YOLOv8x-cls summary: 183 layers, 56144402 parameters, 56144402 gradients, 154.3 GFLOPs\n",
            "Transferred 300/302 items from pretrained weights\n",
            "\u001b[34m\u001b[1mTensorBoard: \u001b[0mStart with 'tensorboard --logdir runs/classify/train', view at http://localhost:6006/\n",
            "\u001b[34m\u001b[1mAMP: \u001b[0mrunning Automatic Mixed Precision (AMP) checks with YOLOv8n...\n",
…
